assets/models/gesture_embedder.tflite (tflite, 546000 bytes, 30 tensors)

model_4/re_lu_10/Relu;model_4/batch_normalization_10/batchnorm/add_1 f4 [128]
00000000: d0c7 c23d 0b3b 16bf 1cbb 2bbe 60b1 cabc
00000010: 3680 b43d 2c04 b6bd 107e 9cbd 26f5 cf3d
00000020: 33b2 e33e b01b 8b3e 321b 80be 39e2 10bf
00000030: 4e7c d0bd e8a6 d63e 6293 b83e 99f0 873e
00000040: d8d2 a5be 05b7 ab3e 25c0 a03e 73eb 1dbd
00000050: 007e 5bbf 98ab 633e e068 16bf 8ad0 87bd
00000060: b16c ab3d bcb7 8cbd d588 403e a035 543d
00000070: d832 78be 8a96 8dbe c132 01bf c286 b43d
00000080: 02a7 8bbd 0011 14bf 68a6 43be f072 3bbd
00000090: 305e 7dbd 15d4 083e 9c02 d6bd 5743 8d3e
000000a0: 1b83 4bbe 3812 3a3e fa31 9a3e e0e1 463d
000000b0: 57a3 9a3e b4c4 f83e b0b2 0cbe f164 d7bd
000000c0: 8a01 2abe 5da0 033f 8395 8f3e e8e3 123f
000000d0: b841 ab3c 926d ccbd 9e9e ab3e f091 fc3d
000000e0: 3e07 8b3e f4e9 bf3d 3967 94bd 9785 38be
000000f0: ce41 233e 268c 04bf a0d9 613e b055 8e3d
00000100: 7630 533e b6b9 183e 8a5a a13e c84d d0bd
00000110: 99ef 3ebe 5291 f13e 061c 473d 68c4 cf3e
00000120: 3184 0bbf 2aaa b23e e894 0dbd ead8 57bd
00000130: 4833 6a3e f061 b93d 2445 493e 4dbb ae3e
00000140: 543e 963e 2e0e 83bd 3489 413e 04fe f03c
00000150: f02e 3b3c 3b5a 31bd 6640 01be d036 9fbe
00000160: a078 a03e 54fe 1f3e 4096 583e a8e8 1d3f
00000170: d5e8 c43e 2848 7e3e 400c 98bd 5026 4e3e
00000180: 1194 a8be e06c 3c3c a276 e9be e4b3 633e
00000190: 72da 03be 7fa7 aa3e fdbb 34bd 2d23 14bf
000001a0: 8a9e ffbe b8c0 18bd 141f 8d3e e1e6 54be
000001b0: 62b1 ef3e 200f 93bd a762 613e d090 59bb
000001c0: 00fe 593b 4424 e4bd c9d3 cfbe 6dc6 63be
000001d0: 9430 873e 052e 963e b0c7 ba3d 5b12 c8bd
000001e0: 6c91 8dbe b878 6dbd 9276 9f3e 00f9 133d
000001f0: 4ed8 4abe 0a66 c63e 170d d0be 0c08 aebd
0.095107675 -0.5868384 -0.16770595 -0.024742782 0.08813517 -0.088875145 -0.07641232 0.1015418
0.44471893 0.2716956 -0.25020748 -0.5659519 -0.10179959 0.41924214 0.36049944 0.2655075
-0.32387424 0.3353807 0.31396595 -0.03855462 -0.85739136 0.22233427 -0.58753777 -0.066315725
0.083703406 -0.06870982 0.18802197 0.051808953 -0.24238145 -0.27653915 -0.5046807 0.088147655
-0.068189636 -0.5783844 -0.19106448 -0.04576391 -0.061857402 0.13362153 -0.104497164 0.2759044
-0.19874232 0.18171012 0.30116254 0.048555255 0.30202743 0.48587573 -0.13740039 -0.105173
-0.1660215 0.5141657 0.28043756 0.5737901 0.02090536 -0.099818364 0.33519453 0.12332523
0.27153963 0.09370795 -0.07246251 -0.1801971 0.15943071 -0.5177635 0.22055674 0.06949937
0.20623955 0.14914593 0.31514388 -0.101710856 -0.18646087 0.47181183 0.04861071 0.40579534
-0.54498583 0.3489545 -0.034565836 -0.0526971 0.22871125 0.09051883 0.19655281 0.34127274
0.29344428 -0.06399189 0.18899995 0.029418 0.011424765 -0.04329894 -0.12622222 -0.31096506
0.3134203 0.15624362 0.21151066 0.6168313 0.38458887 0.24832213 -0.074242115 0.20131803
-0.32925466 0.011500567 -0.45598322 0.22236592 -0.12876299 0.33330914 -0.044124592 -0.57866174
-0.49925643 -0.037293166 0.27562773 -0.20791198 0.4681502 -0.07180619 0.22010289 -0.0033197887
0.0033262968 -0.111397296 -0.40591267 -0.22243662 0.2640425 0.29331985 0.091201186 -0.09769126
-0.2765001 -0.057976454 0.3114515 0.036126137 -0.19809076 0.38749725 -0.40634987 -0.084976286

model_4/re_lu_17/Relu;model_4/batch_normalization_17/batchnorm/add_1 f4 [128]
00000000: 5ee1 993e 1fe0 183e d745 fa3e f354 2b3e
00000010: 6c53 ae3e 996f 853e addd bc3e 9fb0 2c3e
00000020: 5f5e b53e 2585 e33c b91d d63e 0ab8 06bf
00000030: 791b 6f3e aebb 9c3e b2b8 e13e f419 7b3e
00000040: ebd0 bc3e 5a9c 193d 4c9b 483f ca3f a43e
00000050: a0fb 9cbc d6de 5c3f 984a 803e f558 49be
00000060: c21c 4cbe 9276 eb3e ed2b 6c3f 0ef3 e5be
00000070: d27b 263f efe1 6a3f bd57 2f3e 504d 0e3f
00000080: 3d3d b9bd c737 083f 0734 f43e 6591 06bd
00000090: c56f 733e 9dd2 653f 5c5e af3e 0e8c 5f3f
000000a0: 06b2 5d3e 2aff 3f3f 98a2 ac3e b6cd 133f
000000b0: 015c d43e a83b aa3e 0c26 113f 3c00 3a3f
000000c0: d826 9d3e ce07 1e3f 9fd7 5f3e 1f96 483f
000000d0: 8226 133f 74c2 223e 2377 023f 6273 0f3c
000000e0: 49f6 643f c06d 573f 44ac ff3e 3fcf 203f
000000f0: e791 f13e 41dd 913e ecb1 fe3e e021 233f
00000100: d53d 443f 4f1b 04bf 55bc 1a3e eede 093f
00000110: 15a3 a3be d5a8 473e e48a b5bb a4a5 a83e
00000120: 21ae 5c3f 6c06 083e 0556 c83e 76e7 133f
00000130: 3251 83be f353 b6be 12d2 013f 904c c43e
00000140: 0262 5e3e 96fb 183f 56cb bc3d 304c 713e
00000150: 7aba d53e 07d2 c03c c796 013e b6c5 1a3f
00000160: a0b1 823e 32ca 84bd dd9b cc3e 4a50 a93e
00000170: 2515 a4be 2345 493f bbd4 953e 3ae5 173e
00000180: c53d 833e ba84 e03e b52f 50bd d1ef 143f
00000190: 1f37 aa3e 6f31 b73e c0c5 c53d 99bb 3b3f
000001a0: fbe4 993e 90c2 0e3f 3643 4b3e 7d36 19bf
000001b0: 8452 1a3f 4683 1b3f 0214 e33d 7f01 2f3e
000001c0: 34d2 203f 805e 913d 6be7 f63e f714 703e
000001d0: 010b ea3e 06ad e03e 1bc5 a73e d66f 123f
000001e0: 9f9f 0b3e c167 6a3e b9e4 f83e 9fe4 0f3f
000001f0: 0dd4 993e 1435 0a3f 443b 783e 02d1 233f
0.30054754 0.14929245 0.4888141 0.16731624 0.3404802 0.26061705 0.36887875 0.1686425
0.35423562 0.02777345 0.41819552 -0.5262457 0.23350324 0.30611938 0.44086224 0.24521619
0.36878142 0.037502624 0.78361964 0.32079917 -0.019162953 0.8627752 0.2505691 -0.1966284
-0.19932845 0.459889 0.92254525 -0.44912 0.65032685 0.91751 0.17123313 0.5558672
-0.090448834 0.5321011 0.47695944 -0.032853503 0.23773105 0.89774495 0.34251678 0.8732308
0.21649942 0.74998724 0.337178 0.57735765 0.41476443 0.3324864 0.5669868 0.7265661
0.30693698 0.6173066 0.21859597 0.78354067 0.57480633 0.1589449 0.5096304 0.008755537
0.894383 0.8415184 0.49936116 0.6281623 0.47181627 0.28489116 0.4974512 0.63723564
0.7665685 -0.5160417 0.15110905 0.5385579 -0.3196036 0.19497998 -0.0055402387 0.32938874
0.862032 0.132837 0.39128128 0.57775056 -0.25647885 -0.35610923 0.50711167 0.38339663
0.21717075 0.5975889 0.09218471 0.2356422 0.41743833 0.023537649 0.12655173 0.6045793
0.25526142 -0.06483878 0.39962664 0.33069068 -0.32047382 0.7862112 0.29263863 0.14833537
0.25633064 0.43851262 -0.050826747 0.5817843 0.3324518 0.35779902 0.096568584 0.73333126
0.3005751 0.5576563 0.19849858 -0.5984877 0.6028216 0.6074718 0.110878006 0.17090414
0.62820745 0.070981026 0.48223433 0.23445497 0.4571152 0.43882006 0.32767567 0.572019
0.1363511 0.22891141 0.48612002 0.56208223 0.30044594 0.5398724 0.24241358 0.63990796

model_4/batch_normalization_10/batchnorm/mul_1 f4 [128, 63]
00000000: 45eb babe 5aee 28bf 0a4c 873c c135 f7be
00000010: 3311 633f 0602 043e bbd8 9ebe a67e d93f
00000020: 2c62 de3e 80ac d23e 0ec6 1340 61c0 9c3e
00000030: 31d1 d9bf 5928 e23f 9864 0dbe f475 3ebe
00000040: 7efe 2d3f a0a5 8abe 6949 95be ecf7 cf3e
00000050: f992 80bf 514e d7be 0a56 5fbe 35cf f2be
00000060: a591 30bf 4aad 1440 7422 1cbf 3b17 1c3e
00000070: 6a7f 2e3e b5f9 2cbf 8f79 8f3f 3bba ccbf
00000080: 4d49 ec3d e6e7 983f 226a 0dc0 e150 1d3d
00000090: 4788 313f 91a9 84bf 50b1 b33d 9aa6 7d3f
000000a0: dbe5 563f 568b 40bf 24c0 ff3e 0d06 bdbf
000000b0: baef 623f d2e0 93bf b650 07c0 614b 0bbd
000000c0: 9a22 aabf 1713 afbf 26c1 81bd e4d7 e23f
000000d0: 8936 fc3f b7a1 22bf 3c5b 0dbe 779d e23e
000000e0: 7551 e4bd ab93 dabf b0ab ee3e 695f bbbe
000000f0: 2171 b7bf 1f86 8b3f cdbd 99bf 53c6 9a3f
00000100: 5100 193e 3061 8d3f 4e34 363f 3539 33bd
00000110: c0a8 d13e 4640 773f cac4 183f 3019 8f3c
00000120: 93d3 bd3f 4e6d 1440 a738 4ebf 211e 56bd
00000130: 63a8 5040 c868 c7bf 126d 65bf e1b9 b3bf
00000140: 46e4 9b3e 8606 01bf a01b 89bf 3386 9fbe
00000150: b458 e2be 0da5 fdbe 0515 c6be 2599 433e
00000160: 0a2c 5bbf 223a f6be 42a7 a4bf a141 17bf
00000170: c494 01be 0796 74be 51e3 8abf fed4 f63e
00000180: b71d 4fbf f47f 89be eb6a 8a3c 07bc 1cc0
00000190: 3717 1cbf 57fd c43e 18d7 e2be 237f 72bc
000001a0: ce5b 15bf aedb 0f3f 66b4 ebbe bc52 003e
000001b0: c87f 1d3d c8c4 5c3e c3b8 92be 6823 fc3e
000001c0: e1b7 a2be 1c62 a0be de3b 243e 90f0 5e3e
000001d0: c81a aebe 82e9 083f 34d3 873e 21ba 5bbd
000001e0: cad9 7e3f 9bf9 b93f 3b44 893e 8d0c 153f
000001f0: 9262 e13f bb9c 2f3f 00ca 0ebe 5336 8b3f
00000200: 0cc9 ed3e b3a7 5f3f 0ab6 aebf 3610 f3be
00000210: 539e 903e 8fc5 bbbf 34cf 70bf 4182 cebe
00000220: c28a 1fc0 c5c2 31bf f529 9b3f 2992 a0c0
00000230: 2591 81bf da96 9f3f 5b13 d93d f140 08bd
00000240: 1885 1940 f399 3a3e 8fb8 a13e 4a28 e03e
00000250: c0ac fe3f d192 863f f2e3 f0bf 637a 533f
00000260: 72fd 4f3f c246 0cbf 47d1 e83e 3fb4 7c3e
00000270: cbff ec3f eedc cc3e 15f6 a43e 4d90 9b3f
00000280: 803a c53e ac4b 76be a310 343e 0e9f 3d3e
00000290: dca1 f2be 3bb2 b2bf 61e0 ec3e 94d7 183e
000002a0: cd9e 0bbe 2193 06be 0e30 86be f4ae 6cbe
000002b0: f38a cb3e ad8d 06bf 7023 5e3c 6327 7dbf
000002c0: b302 12bf 9d8e 18c0 1a00 623f c777 003f
000002d0: 7874 f0be 9e83 753f 0938 3c3e 2591 92bd
000002e0: f82f 0b3f 7725 e5be 64c4 c03e de04 003e
000002f0: fd73 91bf df42 a8bf 964e 17bf 91da 2abe
00000300: e4f1 963f d86d 25bd 0c90 e93e 778a 1c3f
00000310: 6d04 5f3e c474 00bd 99f3 9bbf 5a39 70bf
00000320: 3ae2 353f 1093 9dc0 391d 72bf 3b89 ab3f
00000330: 6407 63bd 4cd3 e83e 26a0 c23e 7ad4 d9be
00000340: 3c4d 423f 53fb 373f f964 a13e 5e3f 80be
00000350: ee87 2a3f 3009 893f c1fc 72c0 2a0e d83e
00000360: c675 1b3f 85e5 64bd 3673 cc3e e36c f33f
00000370: faaa 5e3f a081 27be 4363 523f 8c99 cc3f
00000380: b32d 54bf 0ee3 c8bf 20e4 0c40 83dd dd3e
00000390: de76 76bd b204 d63d c51d ea3e 672a 2140
000003a0: 1a80 3bbe 2d87 5abe 09cb 0d40 3dba 02c0
000003b0: 937d 59be 2780 f43f f307 84c0 611c 05bf
000003c0: 5667 0dbf 30be 39bf 783e 743f c620 073e
000003d0: ecae debe 4bed 14be 4e12 34bf 5c7c 2ebe
000003e0: 9d18 4ebe d550 b7bf 5ff0 183f 6a18 0abf
000003f0: a382 0140 42c9 833f 39f8 c83e 8762 b13f
-0.3650762 -0.65988696 0.01651575 -0.48283198 0.8869812 0.12891397 -0.31024727 1.6991775
0.43434274 0.41147232 2.3089633 0.30615523 -1.7016965 1.7668563 -0.13807905 -0.18599683
0.6796645 -0.27079487 -0.2915757 0.40618837 -1.0044852 -0.42051938 -0.21810165 -0.4742371
-0.68972236 2.3230767 -0.6099007 0.15243237 0.17040792 -0.6756852 1.1208972 -1.5994333
0.115374185 1.194577 -2.2096028 0.03840721 0.6934857 -1.0364248 0.08774054 0.9908234
0.8394448 -0.7521261 0.4995128 -1.4767472 0.88647044 -1.1552985 -2.1143012 -0.034007434
-1.329181 -1.3677701 -0.06335668 1.7722135 1.9704143 -0.6352801 -0.13804334 0.4426076
-0.11148349 -1.7076315 0.46615362 -0.3659623 -1.4331399 1.0900306 -1.2011048 1.2091774
0.14941527 1.1045284 0.7117356 -0.04375573 0.4094906 0.9658245 0.59675276 0.017468065
1.4830192 2.3191714 -0.80555195 -0.052274827 3.2602775 -1.5578852 -0.89619553 -1.4041101
0.30447596 -0.5040058 -1.0711555 -0.31157073 -0.442083 -0.49539986 -0.38687912 0.19101389
-0.85614073 -0.48091227 -1.2863543 -0.59084517 -0.12654406 -0.23885356 -1.0850621 0.48209375
-0.80904716 -0.26855433 0.016896686 -2.4489763 -0.60972923 0.38474533 -0.44304729 -0.01480082
-0.5834321 0.5619458 -0.4603607 0.1253156 0.03845194 0.21559441 -0.28656587 0.49245763
-0.31780913 -0.31324852 0.16038463 0.21771455 -0.34004807 0.53481305 0.26528323 -0.053644303
0.9955107 1.4529299 0.26809868 0.58222276 1.7608206 0.68598527 -0.13944244 1.0875953
0.4644245 0.87365264 -1.3649304 -0.47473305 0.28245792 -1.4669665 -0.94066167 -0.4033375
-2.492844 -0.6943782 1.2122179 -5.017842 -1.012242 1.2467911 0.10599395 -0.033265058
2.3987484 0.1822279 0.3158612 0.43780738 1.9896469 1.0513555 -1.8819563 0.8260862
0.812461 -0.5479547 0.45472166 0.24678133 1.8515562 0.40012306 0.32218996 1.2153412
0.38521194 -0.24052304 0.17584471 0.18517706 -0.47389114 -1.3960642 0.46264938 0.14925987
-0.13634796 -0.13142063 -0.26208538 -0.23113614 0.39754447 -0.5255993 0.013558254 -0.98888224
-0.5703537 -2.3837044 0.88281405 0.50182766 -0.4696386 0.95903957 0.1838075 -0.0715659
0.5437007 -0.44755146 0.37649834 0.12501857 -1.1363522 -1.3145407 -0.5910429 -0.16684939
1.1792569 -0.04038796 0.45617712 0.6114878 0.21779032 -0.031361356 -1.2183715 -0.9383751
0.7104832 -4.924202 -0.9457584 1.3401254 -0.05542697 0.45473707 0.3801281 -0.4254492
0.758991 0.71867865 0.3152235 -0.25048345 0.6661366 1.0705929 -3.7966769 0.42198306
0.60726583 -0.05588295 0.3993165 1.9017605 0.8697964 -0.16358042 0.8218271 1.5984359
-0.8288223 -1.5694292 2.2014236 0.43333063 -0.060171954 0.10450114 0.45725837 2.518213
-0.18310586 -0.21340628 2.2155173 -2.042617 -0.21239309 1.9101609 -4.1259704 -0.5199643
-0.55235803 -0.7255583 0.9540782 0.13196096 -0.4349283 -0.14543645 -0.7034043 -0.17039627
-0.20126577 -1.4321543 0.5974178 -0.539435 2.0235984 1.0295794 0.3925188 1.3858193

model_4/batch_normalization_17/batchnorm/mul_1 f4 [128, 128]
00000000: ce1d 243d a7ea 80bd 63f9 7f3d 2bc0 d73c
00000010: 8c88 00bd 06b4 8fbd d8fd 16bc daf7 91ba
00000020: 1b69 1b3d 30f5 6abd 4549 c6bd 21cb 443d
00000030: d5b4 92bd 9d11 e9bb 0b95 7fbd ee6a a73b
00000040: 8e94 abbd 5e32 73bd 2ede 92bd 034a 04bd
00000050: bd9c d43b 5df8 a13c e8b6 57bd becf d8bc
00000060: 3549 703c 8480 53bb 0443 2ebd 53d4 bd3c
00000070: 2fe1 c9bc 6d71 45bc 009d 3f3b d20a 47bd
00000080: f505 68bd 51e9 6bbd 9b13 07bd 9bab 9dbb
00000090: 7d35 6e3c 2070 62bc 98bc 01bd 34c7 b2bc
000000a0: fecb 5dbd 89ed d0bd cde6 b73c 658c 8cbd
000000b0: d955 0e3d d10f 12bc f769 9ebd b266 a8bc
000000c0: 766f f3bc 8ba5 813c 3854 033d 108b 52bc
000000d0: 59dc 69bd 8cb6 f7bc 3765 a1bd 2c29 43bd
000000e0: 6a80 37bd 4eb5 64bd 8258 34bd e49a 683d
000000f0: ac53 32bd 6438 d6bb af0c 003d 9a2b 5bbd
00000100: e9c8 4a3c b6da d8bd ec66 d6bc 04af d03c
00000110: c199 fbbc 0799 b63c bf95 54bc 9a26 133d
00000120: 7c11 0dbd 5aaf 1e3d 7d9f 04bc b979 e83c
00000130: f3d1 dfbc 7c1e 9b3c 4807 8abd d0a6 c3bc
00000140: f3d6 03bd 3be7 1b3c 1c73 a83c 7b82 633c
00000150: c3a3 2fbc ae02 7cbc 2a25 013b 14ae babb
00000160: 971e 913d 74cc 07bd 4975 0f3c 1c4f 003c
00000170: 1585 393d 9d83 a9bc 536d 00be a490 7bbb
00000180: 50c4 04bd a236 55bd e20f c1bd d404 febc
00000190: ab0b 16bd 8011 14bc 4b55 4ebc 3156 28bc
000001a0: da3b 97bd fcaa acbc cd8a fb3c 8ae8 86bd
000001b0: 26f1 1ebd ea9f e93c fffc 1dbd 16d9 64bd
000001c0: 0283 79bd c2bc 7ebd beaa 99bd c107 a73c
000001d0: 8b12 87bd 70b8 5c3b 220f 323d 1468 083c
000001e0: 1d56 9fbc b2a4 4e3d 8d55 613c 37a6 86bd
000001f0: ec9f a1bd d8eb 633d 23ac 3bbd e6c4 3c3d
00000200: a2db fe3b fabc 7f3c 03e6 b2bc 0c52 723c
00000210: fb77 30bc f528 2abc 0422 d1bc 728d f0bc
00000220: 0ed0 843c 31c8 6dbc 948d 1bbc 2e72 20bc
00000230: 13cb 9cbd eff4 ae3c 2db8 32bd a13a 3a3c
00000240: a302 813c 3061 37bc 8568 76bd c22d bdbd
00000250: 4740 9a3b 699d cbbc 9ff0 013c 168b 76bc
00000260: d666 913c b7a6 92bc 03b5 a3bb 0a09 c7bc
00000270: 352e 5c3c 528d 143b 65d0 a9bc 8134 32bc
00000280: 3bd5 4cbc bea4 feba 1306 49bd deb9 8cbc
00000290: 3f31 2c3c 6697 32bd cfa1 cabc 05c8 ecbc
000002a0: 8451 13bd 59a0 96bc fb3e 0e3c 87bb 86bd
000002b0: 1897 d8bb ab16 3fbb ec53 9ebd 7810 cb3b
000002c0: f186 98bc cb0e aabc b6e4 39bb 2ca1 9b3c
000002d0: f386 84bc 52e6 c7bc 27ee 20bd 99ec 243c
000002e0: 46eb c73c cc02 103d f353 ad3c dc0c 84bb
000002f0: 313a 22bc 0ac3 9f38 10f1 5dbd f604 99bd
00000300: 0f14 213d 143a d6bc 73e1 80ba 2740 4cbd
00000310: 1481 753c 3ff3 bcbc 4475 f5bc 402e 1fbd
00000320: d881 353c 258d 48bc 71ee 513d 6238 5ebd
00000330: 41ba 0ebd fd24 f33c 0033 823a 8a32 bebc
00000340: fe11 aa3c 1699 59bd 7207 09bd 1781 5e3c
00000350: ba8b 20bd d8d7 18bd 2f3c 9abd f1c6 a5bc
00000360: f423 ebbc bfe8 a83b 43a7 213b d5d6 743c
00000370: 7f6e d0bb 0e3c cbbd 62af a4bd 8804 ae3c
00000380: 741f d1bc a7ab 86bc 93e2 cb3b 1815 1e3c
00000390: 77d9 80bd 69c4 d6bc e2e6 043d 3f83 8c3c
000003a0: a183 f9bc ab0c 48bd 90ac 383d 4387 63bd
000003b0: 22fd e03c 34f7 98bc 60b0 923c f22c 19bd
000003c0: 3757 b23c 205b 18bd c908 eabb 453e c53a
000003d0: 16aa 46bc c08a 07bd a7f6 f73c 62e1 a8bc
000003e0: 378c 50bd 0d9a 923c dfdf 6a3c 50d9 e0bc
000003f0: 068f c2bd 3ff8 a7bc 10d1 92bd 7eda 9b3c
0.040067486 -0.062947564 0.062493693 0.02633675 -0.03138022 -0.070167586 -0.0092157945 -0.0011136488
0.037942033 -0.057362735 -0.09681944 0.04804528 -0.07163397 -0.0071126954 -0.062397998 0.0051091826
-0.08377944 -0.059374206 -0.07171284 -0.032297146 0.006488411 0.01977175 -0.052664667 -0.026466247
0.014665891 -0.0032272646 -0.04254438 0.023172533 -0.024643509 -0.012050969 0.0029237866 -0.048594303
-0.056646306 -0.057595555 -0.03297768 -0.0048117167 0.01453912 -0.013820678 -0.031673998 -0.021823503
-0.05414962 -0.10201556 0.022448922 -0.06862716 0.03474984 -0.008914904 -0.07735055 -0.020556781
-0.029716235 0.015826007 0.03206274 -0.012850538 -0.057094906 -0.030238412 -0.07880633 -0.047646686
-0.0448002 -0.055836968 -0.04402972 0.05678834 -0.043536827 -0.006537484 0.031262096 -0.05350838
0.012377002 -0.10588591 -0.026172124 0.025474079 -0.030712964 0.022289766 -0.012975155 0.035925485
-0.034440503 0.038741447 -0.008094666 0.028378354 -0.027321791 0.018935435 -0.0673967 -0.023883253
-0.032187413 0.009515579 0.0205627 0.013886089 -0.010720196 -0.015381498 0.001970599 -0.0056970213
0.07085913 -0.033153966 0.00875599 0.007831361 0.045292933 -0.02069264 -0.12541704 -0.0038385773
-0.03241378 -0.052054055 -0.094268575 -0.031008162 -0.03663222 -0.009037375 -0.012593578 -0.010274456
-0.07384463 -0.021077625 0.030705834 -0.06587322 -0.038804196 0.028518636 -0.038571354 -0.05587109
-0.060915954 -0.062191732 -0.075032696 0.02038944 -0.06595334 0.003367927 0.043471463 0.008325595
-0.019450242 0.050450034 0.013753307 -0.06574672 -0.07891831 0.05564484 -0.04581846 0.046086214
0.007777647 0.01560902 -0.021838194 0.014790069 -0.010770793 -0.0103857415 -0.025528915 -0.029364321
0.01621249 -0.014513061 -0.009494204 -0.009792848 -0.07655921 0.021357028 -0.043632675 0.011366517
0.015748328 -0.011192605 -0.06015827 -0.09237243 0.0047073695 -0.024855332 0.007930904 -0.015047809
0.017749231 -0.017901761 -0.0049959435 -0.024296302 0.013438751 0.0022667241 -0.020729253 -0.010876776
-0.01250201 -0.0019427759 -0.04907806 -0.017178472 0.010509788 -0.043601416 -0.02473536 -0.02890397
-0.03596641 -0.018387007 0.008682008 -0.06578737 -0.0066098087 -0.0029157798 -0.077308506 0.0061970316
-0.018619033 -0.020759007 -0.0028365082 0.018997751 -0.01617763 -0.024401817 -0.03928962 0.010066175
0.02440418 0.035158917 0.021158194 -0.0040298533 -0.009901569 7.61804e-05 -0.054184973 -0.07471649
0.03932577 -0.02615074 -0.0009832814 -0.049865868 0.014984388 -0.023065208 -0.029963143 -0.038862467
0.01107832 -0.012240683 0.051252786 -0.05425299 -0.034845594 0.029680723 0.0009933412 -0.023217458
0.020760532 -0.05312451 -0.033454366 0.013580582 -0.039195754 -0.03731522 -0.0753101 -0.020236464
-0.028703667 0.0051546986 0.0024666346 0.014943798 -0.0063608284 -0.09923564 -0.08041264 0.021242395
-0.025527693 -0.016439272 0.006222078 0.009648584 -0.06291478 -0.026216703 0.03244675 0.017152427
-0.030458273 -0.048840206 0.045086443 -0.055548918 0.027464453 -0.018672563 0.017906368 -0.03739638
0.021770103 -0.03719628 -0.0071421606 0.0015048465 -0.012125513 -0.033091307 0.03026898 -0.020615283
-0.05091497 0.017895723 0.014335602 -0.027447373 -0.09499936 -0.020504115 -0.07168782 0.019025084

model_4/dense_18/BiasAdd/ReadVariableOp/resource f4 [128]
00000000: 03b4 56ba db27 a6ba 96be 1ebb ad3b e93a
00000010: 15fa c5ba 0a2f 3d3b 19b8 9d3a dfe8 9cb8
00000020: 2007 13bb 8124 45ba 0fb9 81b9 ec5d c439
00000030: ab78 a93a 3361 8e3a 56f0 e33a 5560 42ba
00000040: 6522 a3ba 4e9a 0839 fc63 5abb 2a7f 21bb
00000050: ba65 ff38 29f5 98ba 4bbc b8ba 5e7e c43a
00000060: fae1 013b 6bcf a939 0754 a8b9 38b9 a7b9
00000070: 8d6c 2f39 62b3 dc39 cc8c 4e3a 2243 0dbb
00000080: 4474 a4b8 2936 6c3b 96bb 223b b32b b33a
00000090: 6fd1 94b9 12b7 aeb7 7391 e83a 67e2 fe39
000000a0: 29d4 b8b9 0468 35ba 5db5 d3ba 3d51 11ba
000000b0: 5a6d 27ba f9eb adba cb3e 3aba 1677 f8ba
000000c0: c165 f23a baf6 033b 2851 15ba 3851 b2b8
000000d0: b4c5 8fba 41b6 66ba afdb edb9 9868 953a
000000e0: 2794 c2ba 3dcf 4d36 4be0 663b 1f19 ed3a
000000f0: e055 f7ba e94f 963a 95be c9ba 8775 7a3a
00000100: c6fa 42ba 5752 ffba 42e6 17ba 8802 1b3a
00000110: 0213 16bb db53 e8b9 92b5 0bbb afda 8d39
00000120: d725 2b3a 03d5 153b 546e 8eba 4fb5 ddb9
00000130: 1921 0ab9 07c3 bbba 2417 c1ba 5dd3 3038
00000140: 3902 21ba a1dd 3fba f999 f8b9 90c7 c739
00000150: e66d e0b9 2505 6238 2906 a4ba 61fb 13ba
00000160: 4fb5 363b f15f 3a3b dfad 923a cf46 31bb
00000170: ed1b 58b9 d282 b2ba 054e 203a 7499 d038
00000180: f0b1 18b9 6a20 3aba 9810 19bb 55a1 e9b9
00000190: 2659 f537 d254 2b39 cce2 8ab8 e88a 8a3a
000001a0: 0c59 fa38 1c6f aeba ea9c 0abb 2313 18ba
000001b0: c009 88ba d4c3 b5b9 46d9 01bb 2131 a03a
000001c0: 13e2 6f38 beac adba 8185 61ba 560a 8f3a
000001d0: 6aaf baba 3d2b c3ba 2572 e238 24ec e839
000001e0: 08d5 15bb 7f03 dc3a c02d d639 3a40 c2b9
000001f0: 46d8 7339 1872 0a3b b2d2 923a 6328 8d3a
-0.0008190276 -0.0012676673 -0.0024222485 0.0017794274 -0.0015104437 0.0028867149 0.0012033015 -7.482035e-05
-0.0022434667 -0.0007520393 -0.00024742677 0.0003745401 0.0012929639 0.0010862708 0.0017390351 -0.0007414867
-0.0012446163 0.00013027454 -0.0033323755 -0.0024642446 0.000121782956 -0.0011669743 -0.0014094202 0.0014991274
0.001981853 0.0003238873 -0.00032106062 -0.0003199072 0.00016729739 0.0004209532 0.0007879257 -0.0021554907
-7.8417856e-05 0.0036043024 0.0024831048 0.001366964 -0.000283848 -2.0827665e-05 0.0017743543 0.00048615338
-0.00035253286 -0.00069201016 -0.0016152073 -0.00055434165 -0.0006386839 -0.0013269178 -0.0007104694 -0.0018956389
0.001849346 0.0020136074 -0.0005695992 -8.5028296e-05 -0.0010968954 -0.00088009617 -0.0004536784 0.0011398969
-0.0014845178 3.066801e-06 0.0035228904 0.0018089152 -0.0018870197 0.0011467907 -0.0015391881 0.0009554256
-0.0007437881 -0.0019479495 -0.0005794504 0.0005913158 -0.0022899513 -0.00044312965 -0.002131794 0.00027056548
0.0006528771 0.002286256 -0.001086662 -0.0004228749 -0.00013173035 -0.001432509 -0.0014731628 4.2158517e-05
-0.0006141994 -0.0007319097 -0.00047416965 0.00038104923 -0.0004280649 5.388739e-05 -0.0012514043 -0.00056450634
0.0027879064 0.0028438533 0.0011190734 -0.0027050262 -0.00020609768 -0.001361931 0.00061151414 9.946796e-05
-0.00014562136 -0.0007100167 -0.0023355838 -0.00044561425 2.9247789e-05 0.00016339429 -6.622597e-05 0.0010569962
0.00011937515 -0.001330826 -0.0021150657 -0.00058011914 -0.0010378882 -0.00034668914 -0.0019813343 0.0012221673
5.719259e-05 -0.0013250334 -0.00086029625 0.0010913115 -0.0014242951 -0.0014890205 0.00010797781 0.00044426427
-0.0022862572 0.001678571 0.00040851347 -0.00037050416 0.00023254854 0.0021125134 0.0011201708 0.0010769482

model_4/dense_17/BiasAdd/ReadVariableOp/resource f4 [128]
00000000: 5a23 cb39 5239 343b ebda 12bb 2cab 5e3a
00000010: 8087 1b39 f1b4 583a 226e 3cba 201e 1c3b
00000020: c4cb 34ba e191 d838 88b8 2dbb 277e 1f39
00000030: 24b2 1b3b ffb2 4c39 0748 19ba d05c f938
00000040: 5fd5 ed3a f838 f8b9 a22c 45ba dd0c 103a
00000050: ebc1 f0b9 1dc8 86ba 501e 20bb 6359 d8b9
00000060: f1e5 1b3b 303a f437 7c69 97bb dba9 0bba
00000070: 370e 1f3a 1412 8839 9263 b2ba bf1d cfba
00000080: 710e a0ba 8bd4 9aba b4e6 613a f727 3739
00000090: 8aa3 aeba bf86 23bb 4130 6f3a 43dd 8e3a
000000a0: 3ed2 dc3a 3664 2fba 8d0f d4ba 9646 c2b9
000000b0: 27a8 cc3a 2c50 17bb b393 e3ba 9bbd 9239
000000c0: 3888 8839 4d73 943a fdb2 013a 017f dd3a
000000d0: dcdf 6d3a 5774 7239 e0aa ddba 9779 e43a
000000e0: 9537 48b9 0253 3cba 4cc8 663a 8d9f e4b9
000000f0: 48f1 aa3a 88fb 9b3a 8f7d 68ba f49a b3ba
00000100: 7dcc 15ba e6bf deb9 4992 33b9 06d9 613a
00000110: e3f0 b239 da92 38bb 9ea2 bfba 77fd c53a
00000120: 5282 f23a 740f 823a 271b caba 1405 ed39
00000130: bf75 b43a e7a3 a3ba b0ff afba c21b 5eba
00000140: f1cf 9abb 78bf d0b9 0838 d939 de26 59ba
00000150: 01ee 2a39 ccb5 ac39 50d9 36ba 6ac0 8f39
00000160: cb40 853b 78cb 413b a956 353b 23ec a43a
00000170: e37b e73a d832 bdb8 ef30 873a 8611 8d3a
00000180: 07be d73a 76b6 79ba bedb 18ba 49b4 50ba
00000190: ddd9 38ba fb4a 55ba d7ff 233a 648e 5b39
000001a0: d49d 533a 8925 38ba 6d08 043b 394c 8cba
000001b0: a0e9 25bb 47f4 433a 58aa 62ba e59c 843a
000001c0: 90ec 2e37 f398 eab8 4bd9 973a 7ac3 30ba
000001d0: afd8 0a3b 3165 6b3a 2e82 e63a 8acc 063b
000001e0: 51e6 b03b dd59 ed3a 0f16 333a eaf0 b53a
000001f0: da4a 6e3a 3f2c e43a b568 8939 c16e bc39
0.00038745516 0.0027499986 -0.0022408317 0.00084941345 0.0001483243 0.00082667085 -0.0007188042 0.0023821667
-0.00068968185 0.00010326855 -0.0026507694 0.00015210417 0.0023757303 0.00019521637 -0.000584722 0.00011890533
0.0018145255 -0.0004734469 -0.00075216044 0.0005495081 -0.00045920847 -0.0010283027 -0.002443213 -0.0004126533
0.0023788179 2.9114162e-05 -0.004620729 -0.00053277396 0.0006067487 0.0002595341 -0.0013609997 -0.0015801712
-0.0012211335 -0.001181261 0.00086174463 0.00017467128 -0.0013323885 -0.002495214 0.0009124317 0.0010899681
0.0016847325 -0.0006690653 -0.0016178951 -0.00037055154 0.0015614078 -0.0023088558 -0.0017362743 0.00027988557
0.00026041432 0.0011325866 0.0004947631 0.0016898812 0.000907419 0.00023122258 -0.0016911887 0.0017431256
-0.00019094192 -0.0007184 0.000880365 -0.00043606423 0.0013041878 0.0011900524 -0.00088688073 -0.0013702796
-0.000571437 -0.00042486115 -0.00017125266 0.0008615408 0.0003413028 -0.0028163702 -0.0014620607 0.0015105446
0.0018501973 0.0009922818 -0.0015419469 0.00045207946 0.0013768001 -0.001248476 -0.0013427641 -0.0008472764
-0.0047244956 -0.00039815507 0.00041431212 -0.0008283685 0.00016301127 0.00032941846 -0.0006975131 0.00027418445
0.004066562 0.002957074 0.0027670062 0.0012582581 0.0017660822 -9.021693e-05 0.0010314266 0.0010762669
0.0016459831 -0.0009525785 -0.0005831084 -0.0007961435 -0.0007051507 -0.0008136478 0.00062560797 0.00020938512
0.00080725295 -0.0007024636 0.0020146624 -0.0010703868 -0.0025316253 0.000747506 -0.0008646599 0.0010117559
1.0426287e-05 -0.000111864785 0.0011585144 -0.00067429955 0.0021186282 0.0008979617 0.0017586404 0.0020568692
0.0053985496 0.0018108446 0.0006831595 0.0013881002 0.0009090133 0.0017408206 0.0002620869 0.00035940672

model_4/dense_16/BiasAdd/ReadVariableOp/resource f4 [128]
00000000: e5b5 b83a b0aa 6e39 ef5f b43a 7fab c7ba
00000010: 66ca 9d3a 2237 6e3b 8aaf 753a 8be3 093b
00000020: d8b3 18bb 237e 0a3b 6bb9 3fba f4ac a639
00000030: a75c d03a 2667 1d3a 5235 a33a 181f b3ba
00000040: 4ceb 953a a41e 2ebb 7cfe 1939 6149 9f3a
00000050: 8dfc d63a 56c4 b63a 673f 1fbb d62a a8b9
00000060: 20b2 8a3b f81d bb39 6ca1 30bb a7d6 e4b9
00000070: 073c 2039 01ed 8a3b 8ceb 13ba a604 a43a
00000080: 76f7 563a c0bc 713b bfb2 ed3a a70a 413a
00000090: 4d2c 0bba 1d57 07ba 376d 9a3a 560f c93a
000000a0: aed7 493b a41b d0ba 4c0a 403b 4eca ea3a
000000b0: fc91 443a 1789 19bb 1367 71ba 5bc0 323a
000000c0: 2248 6a3a 5ced 28b9 2173 6cba 32c7 13bb
000000d0: 16dc 5f3b 9687 c138 a60f 35bb f967 5cbb
000000e0: 5d3f 86b8 15fb 5dbb 350a 1cbb d5cd 4539
000000f0: 1cc6 3bb8 a6eb 323b eddc 12ba f1d7 6f3a
00000100: 4722 8f3a 7652 e3ba d9ee 133b c393 683b
00000110: eb97 333a 91bd f4ba 9a6a 6cbb 85ee 96ba
00000120: 58fe 193a 0ab8 8839 83ba e0ba 45d0 86b9
00000130: e1d6 13ba c3fd 82bb 42e4 2c3b dc04 1abb
00000140: a489 f63a dc46 30bb b9c5 1cbb 1401 f7ba
00000150: fc13 00bb ef12 26ba ee2e 723a 9f05 f73a
00000160: fd8d 1d3b f9ac ee39 3c11 e2b9 f763 f2ba
00000170: 4589 54ba 509a 893a 6b1a fb3a ee43 2b3a
00000180: 22f5 ca3a ddf1 8438 da42 af3a 8c34 58b9
00000190: 0485 c0b9 4c90 423a 5349 153a 66aa 223b
000001a0: 373f 003b 10d7 4fb9 5b2e e139 bdb2 053b
000001b0: 77fb 9639 f9f4 9639 7277 46b8 ba58 023b
000001c0: 4870 13b9 4463 c4b9 868d 803b e348 c93a
000001d0: 7a6c fd3a 7731 99bb 8413 483b 2a4d 5fb9
000001e0: a5b6 8d39 9ba1 c6ba f8a8 413b ce0a e039
000001f0: 3e34 a1b8 9d1c 25bb 042b fe39 52d2 4b3a
0.0014092295 0.00022761035 0.0013761501 -0.0015233605 0.0012038469 0.003634878 0.00093721657 0.0021040167
-0.0023300555 0.0021132312 -0.0007313701 0.00031790847 0.0015896753 0.0006004445 0.0012451804 -0.0013665883
0.0011437922 -0.0026568556 0.0001468602 0.0012152606 0.001640217 0.0013944011 -0.0024299265 -0.00032075372
0.00423266 0.00035689748 -0.0026951684 -0.00043647477 0.00015281151 0.004239679 -0.0005642704 0.0012513592
0.00082003267 0.0036886185 0.0018134936 0.0007363953 -0.00053090305 -0.0005162822 0.0011781816 0.0015339653
0.003079872 -0.0015877378 0.0029303012 0.0017913075 0.000749856 -0.002342766 -0.00092087797 0.00068188243
0.000893714 -0.00016110152 -0.0009019841 -0.002254915 0.003415828 9.228212e-05 -0.0027627735 -0.0033631308
-6.40142e-05 -0.003387158 -0.0023809795 0.00018864062 -4.4768778e-05 0.0027301102 -0.00056023785 0.0009149304
0.001092025 -0.0017343301 0.0022572784 0.0035488463 0.00068509456 -0.0018672218 -0.0036074282 -0.0011515176
0.0005874387 0.0002607706 -0.0017145429 -0.00025713645 -0.00056396244 -0.003997536 0.002638117 -0.0023501432
0.0018809331 -0.0026897704 -0.0023921563 -0.0018844926 -0.0019543162 -0.0006335219 0.00092385605 0.001884628
0.002404093 0.00045523772 -0.0004311892 -0.0018492927 -0.0008107613 0.0010498259 0.0019157653 0.00065332546
0.0015484432 6.339301e-05 0.0013371364 -0.0002061894 -0.00036720198 0.00074220146 0.0005694825 0.0024820804
0.001956893 -0.00019821175 0.00042949882 0.0020400726 0.00028797585 0.00028792748 -4.731812e-05 0.001988931
-0.0001406084 -0.00037457992 0.003923121 0.0015356805 0.0019334697 -0.004675086 0.003052921 -0.00021295683
0.00027029697 -0.0015154363 0.0029550176 0.0004273266 -7.686809e-05 -0.0025194057 0.00048478704 0.00077751756

model_4/dense_15/BiasAdd/ReadVariableOp/resource f4 [128]
00000000: 07d4 e2ba 05b9 933b 8312 7e36 e702 2c3b
00000010: a9fe 37b9 5060 a93b b227 043a f4de 5a3b
00000020: 43dc 12b7 2874 38bb c62f 5ebb cfb4 d83a
00000030: 77fb 67ba 8c1f 013b e7cc 6fbb 4bc3 083b
00000040: 5c0d 49bb 061f 83bb e72f 58ba 62f6 cc39
00000050: fa45 3dbb 83e0 65bb 3590 fbba d857 a1b9
00000060: 1d8c 333b a6ed bcba ad5c 8c38 5e95 4bba
00000070: c739 103b 8b67 be39 f766 16ba 19c7 f7ba
00000080: ceb1 3eba b446 85bb b031 2d3b 19e9 25bb
00000090: 9d69 57bb 8765 a7bb fff6 e7ba c144 dc39
000000a0: 942f 95ba 8503 263b f03d 6137 6157 8d3a
000000b0: e13c 61ba e536 9439 5af7 49bb ff4b 83bb
000000c0: ce7b ec37 0ee8 00bb 561c 413a ca3b a53a
000000d0: f01d ff3a 1fad 1b3b 834d 71bb ea0f 1538
000000e0: ed50 12bb f502 9037 0569 21bb 5c05 223b
000000f0: dd13 a43a 45cd 29bb de8c 01bb 3cba 97ba
00000100: 5f77 3dbb d57c 87bb 738a faba 79b4 9eba
00000110: 9875 883a c9db 6fbb 0eec 81bb b8a2 22b8
00000120: 1f78 d03a 6640 df3a eff9 9a3a 2456 a3bb
00000130: 42b5 e13a 46dd 7bbb 4f89 1e3a 6ec6 6dbb
00000140: 55f6 3c3b e8cf 29ba 275e 85bb 8581 81bb
00000150: dc92 8c39 ab52 8c3a 51c8 8a3b 2a7d 7d38
00000160: 8aa1 003b 94c2 10ba cc78 cd3a cf81 6d3a
00000170: c352 543a fdef 01bb 968f 403b d88b 0b3b
00000180: 86c5 25ba a7c8 55ba 8d2b 0fba 6b80 30b9
00000190: e667 043b 9ff7 053b dcf6 073b c171 f63a
000001a0: 1661 363b 3b6c 50bb 6db8 e0b9 4680 4d3a
000001b0: 8984 1bba 60da 953a cb71 0938 aa33 98ba
000001c0: 48e9 213a f3af 8c3a a85c 4dba e208 1e3a
000001d0: cd6c 183a fc16 f337 9897 5037 a53b 16ba
000001e0: ce95 a0ba 08a5 1d3b bc22 063b 9450 b93a
000001f0: b2b4 113b 3ac3 a9ba 9424 4c3b 30e0 e53a
-0.0017305621 0.00450814 3.7859725e-06 0.0026246847 -0.00017547108 0.005168952 0.00050413155 0.003339705
-8.753562e-06 -0.0028145406 -0.0033902987 0.0016533377 -0.0008849422 0.0019702641 -0.0036590637 0.0020868357
-0.0030678129 -0.004001501 -0.0008246884 0.00039093482 -0.002888082 -0.0035076446 -0.0019192757 -0.00030773762
0.0027396746 -0.0014414086 6.6929824e-05 -0.0007766093 0.0022007094 0.0003631677 -0.0005737389 -0.001890394
-0.000727442 -0.0040672664 0.002642732 -0.002531594 -0.0032869347 -0.0051085385 -0.0017697512 0.00042012896
-0.0011381977 0.0025331688 1.3425466e-05 0.0010783487 -0.00085921405 0.0002826966 -0.00308176 -0.004006862
2.8191043e-05 -0.0019669565 0.0007366588 0.001260632 0.0019463878 0.0023754311 -0.0036819882 3.553919e-05
-0.0022326068 1.7167515e-05 -0.0024629247 0.0024722433 0.0012518127 -0.0025909704 -0.0019767801 -0.0011575888
-0.0028910262 -0.004134754 -0.0019114747 -0.0012108228 0.0010411022 -0.0036599508 -0.0039649075 -3.8775353e-05
0.001590494 0.0017032742 0.0011823754 -0.004984634 0.0017220157 -0.003843145 0.0006047682 -0.0036281603
0.0028833349 -0.0006477819 -0.0040700617 -0.0039522075 0.000268123 0.0010705789 0.0042353054 6.043647e-05
0.0019627535 -0.00055221585 0.0015676259 0.00090601755 0.00080994907 -0.0019826882 0.002938246 0.002129307
-0.0006323684 -0.00081552047 -0.00054615067 -0.00016832507 0.002020353 0.0020441783 0.0020746505 0.0018802212
0.0027828864 -0.0031802792 -0.00042862017 0.00078392436 -0.000593253 0.0011432879 3.2769323e-05 -0.0011612077
0.0006176424 0.0010733589 -0.0007833936 0.00060285453 0.00058145524 2.897856e-05 1.2433062e-05 -0.00057309336
-0.0012251677 0.0024054665 0.002046748 0.0014138394 0.0022232947 -0.0012951859 0.0031149732 0.0017538127

model_4/dense_14/BiasAdd/ReadVariableOp/resource f4 [128]
00000000: 941f 8137 ba04 923b 0058 503a 6d9c 40ba
00000010: d647 573a ed59 de3b 4914 9a3a 12d9 40ba
00000020: 69ef 37bb 6301 6bb9 6a69 b23b 8b22 ab3a
00000030: 0872 853b 3dae 12bb fc03 983b e02e 1eb8
00000040: 58cb 7eba 2805 66bb 90f5 2f3b 67e8 30bb
00000050: e74c 86ba a62c 60bb 9b89 a3bb 8240 0e3a
00000060: 59cd ab3b 000c eab9 e891 c7bb 90d8 223a
00000070: 3825 abba 43c4 7b3b 2bf9 bcba c928 dfba
00000080: bd05 f0ba 05de 07bb 1d2d a7ba 9ce3 a0bb
00000090: dcf2 cdb9 88c3 e5bb 6cf6 fd39 ecf0 503b
000000a0: ad6a 363b 2c8c 703b 5e46 463b 4c25 643b
000000b0: aa3e db39 ed92 ad3a 41f1 87ba d6ba 8abb
000000c0: 828b 1dbb 6649 2d3b 33e0 533a d0db 693b
000000d0: e1b2 413b 3301 93bb eabc b3bb 3365 c23a
000000e0: ae48 ceba cb92 9a39 3306 1fbb dfe5 833b
000000f0: 1461 b2ba f6af c8b8 55f8 23bb d64c 8ab9
00000100: cc52 f538 1b4d 80ba 9d7b 063b 46c6 123c
00000110: de6b 10ba 8207 d2bb a5dd 85bb d894 d6ba
00000120: 530c eb3a 93e9 e8b8 dcda e33a 3d0c 1c3b
00000130: c98c 303b 45fc e1ba 49d0 94ba eaa1 193b
00000140: d782 643b 8ac0 1a3b da88 44bb 0107 93bb
00000150: 470c 013a df2e d8ba 1044 e73a 94fa f43a
00000160: 9307 263b bf6b 3a3b 2d5e c03a fcf8 10ba
00000170: 90cb a1bb f1c2 5c3b 7199 513b 751f 093c
00000180: 8a14 a5bb 3787 d0bb 88c9 393b 5c17 bab9
00000190: a7c2 053b 444c 833a e33d f2ba a9a2 193b
000001a0: 268d 4a3a ca1f 72ba 950c 84bb 872a f339
000001b0: 0e52 87bb 70e0 303a f914 8b39 eef0 17bb
000001c0: e222 373a 7c2a 7ebb fa57 5a3b 8991 0bbb
000001d0: 1ab3 ef3a d2d3 e536 5735 c9ba 4baa 8a39
000001e0: d1c9 073b b467 2f3b 4aee 7b3a 0bb0 cc3a
000001f0: 1742 943a 115e 79bb 8858 4c3a 315b e23b
1.5392703e-05 0.00445613 0.00079476833 -0.0007347528 0.00082123035 0.0067856223 0.0011755313 -0.0007356565
-0.0028066284 -0.00022411863 0.0054446952 0.0013056559 0.0040724315 -0.0022381686 0.004639147 -3.771379e-05
-0.00097196316 -0.0035098288 0.0026849248 -0.0026993991 -0.0010246307 -0.00342063 -0.004990769 0.00054264825
0.005242985 -0.000446409 -0.0060903914 0.000621208 -0.0013057357 0.0038416542 -0.001441752 -0.0017025705
-0.0018312257 -0.00207317 -0.0012754534 -0.0049099457 -0.0003928159 -0.0070118345 0.0004843952 0.0031881882
0.002783458 0.0036704643 0.0030254344 0.003481227 0.00041817623 0.001324264 -0.0010371582 -0.0042336984
-0.0024039452 0.0026441454 0.00080824195 0.0035683997 0.0029556083 -0.004486227 -0.005485167 0.0014831185
-0.0015738213 0.00029482538 -0.002426517 0.0040252055 -0.0013609254 -9.5695184e-05 -0.0025019844 -0.00026378658
0.000116979325 -0.0009788604 0.0020520457 0.008958405 -0.00055092375 -0.0064095864 -0.00408526 -0.0016371263
0.001793275 -0.00011106129 0.0017383951 0.0023811006 0.0026939383 -0.001724132 -0.0011353578 0.0023442456
0.0034868026 0.0023613297 -0.0029988796 -0.004486919 0.0004922789 -0.0016493461 0.0017644186 0.0018690401
0.0025334104 0.002844557 0.0014676504 -0.00055302656 -0.0049375966 0.003368553 0.0031982327 0.008369316
-0.005037849 -0.006363775 0.0028348882 -0.0003549409 0.0020410211 0.0010017236 -0.0018481578 0.00234429
0.0007726721 -0.00092363043 -0.00402982 0.00046380257 -0.0041296547 0.0006747311 0.00026527772 -0.0023184377
0.0006986094 -0.0038782647 0.0033316598 -0.0021296463 0.0018287629 6.849391e-06 -0.001535098 0.0002644829
0.0020719657 0.0026764693 0.0009610398 0.001561643 0.00113112 -0.0038050453 0.00077951746 0.0069078435

model_4/dense_13/BiasAdd/ReadVariableOp/resource f4 [128]
00000000: 9780 693b b9a8 6e38 4dff 43bb e3db 01ba
00000010: 6d55 36bb 70f4 52bb 4ec1 e2ba b9de 67bb
00000020: a221 32bb 17c1 87ba 2ea0 aabb d49d 7aba
00000030: 51b5 993b 6e41 0e3c 2214 21bb 01be 763a
00000040: 6b49 9cba 84ae 07bc 39a2 aa38 0f63 6fbb
00000050: a147 2f3a a001 a3bb 308c cfba 8bb8 0fbb
00000060: 6b62 fe3b da33 bcb9 0470 2d3b df1f aabb
00000070: fa16 41bb c735 2c3c d996 adbb 22d9 34bb
00000080: c965 9e3a a87a 873b ba85 e63b f3a9 c83a
00000090: f4b7 8939 c0b2 b6bb add6 16bb 0556 23ba
000000a0: cb74 763b c4ff d73b 0b53 acbb 5af5 65bb
000000b0: 9e93 73bb 4290 cab9 0534 7abb 9345 0fbc
000000c0: 94f8 54bb 7c94 923b 2007 38bb d643 7d38
000000d0: 4430 9a39 b066 46ba 65df b1ba e545 2b3c
000000e0: a79f 543a ad53 743b 8038 863b 043a 95b9
000000f0: 5c6a ce3b 979d b5bb beaf 16ba 3534 853b
00000100: 16cf ddbb 0759 6cbb 051e 243b 2ee7 853a
00000110: 1c1d e8bb e73c 1cbc 3a36 95bb 4999 3ebb
00000120: e791 f03a cf01 d2bb a3a2 e63b 7e72 e0bb
00000130: f5f4 eeba d656 3c3a 141a 35bb 1f12 b0b8
00000140: c815 90bb fd44 493b 6413 17bc a24e d2bb
00000150: 1ad2 eeba adc8 9038 6dc8 bd3a 7c57 06b9
00000160: c2b8 bf38 c91d 1bba 2174 0fbb 1155 98bb
00000170: d9d5 44bb 3ab0 813a 0e7a 7f3b 7079 083c
00000180: 6a6b adba 7ff0 0c3a a798 05bb 25ce 8ebb
00000190: 6c09 bf3b 89cf 6dbb 1643 97ba 45d3 623b
000001a0: 9ff5 473a 5f20 953a 40e6 ac39 fa9b bcba
000001b0: d84d aabb 56b4 81b9 ea60 273c b6f5 57bb
000001c0: 3bf5 dcba ac98 ccba 2a14 783a f4a3 07bc
000001d0: 7934 9dba 2f8a dd3b 694a 783b 6834 80ba
000001e0: adfd 39bb f499 e4b9 9949 61ba cd71 683b
000001f0: 72ff 813b 048c 09bb 4d03 6d3b b60a 0c3c
0.0035629624 5.6900757e-05 -0.002990681 -0.0004953725 -0.0027821914 -0.0032189153 -0.0017300041 -0.0035380556
-0.0027180691 -0.0010357228 -0.005207083 -0.00095602614 0.004690804 0.008682592 -0.002457865 0.0009412468
-0.0011923736 -0.008281354 8.136448e-05 -0.003652755 0.0006686394 -0.004974559 -0.0015834626 -0.0021930065
0.007763197 -0.00035896787 0.0026464472 -0.0051917876 -0.0029463158 0.010510868 -0.0052975235 -0.0027595242
0.0012084778 0.004134495 0.0070349844 0.0015309438 0.00026267732 -0.005575508 -0.002301614 -0.00062307745
0.0037606235 0.006591769 -0.005258923 -0.0035088868 -0.0037166844 -0.00038635923 -0.0038177979 -0.008744615
-0.0032496797 0.004473267 -0.0028080419 6.0383078e-05 0.0002940913 -0.0007568402 -0.0013570605 0.010453676
0.0008110948 0.003728132 0.004096091 -0.0002846272 0.0062993 -0.005542468 -0.00057482335 0.0040650615
-0.0067690713 -0.0036063807 0.0025042307 0.0010215992 -0.0070835482 -0.009536005 -0.0045535835 -0.0029083064
0.0018354029 -0.006408907 0.007038431 -0.006849586 -0.0018230962 0.00071845704 -0.0027633952 -8.395709e-05
-0.004397128 0.0030711286 -0.009220932 -0.006418065 -0.0018220574 6.903834e-05 0.0014479287 -0.00012811826
9.1420035e-05 -0.0005917219 -0.0021889287 -0.0046488126 -0.003003469 0.0009894439 0.0038982662 0.008329734
-0.0013230864 0.0005376413 -0.0020385177 -0.0043580704 0.0058299806 -0.003628703 -0.0011540379 0.003461079
0.0007627848 0.0011377445 0.00032977946 -0.0014389746 -0.005197268 -0.00024739158 0.010215977 -0.0032952852
-0.0016857752 -0.0015609465 0.0009463454 -0.008278836 -0.0011993787 0.0067608575 0.0037886149 -0.0009781243
-0.0028379962 -0.00043602253 -0.0008594036 0.0035468221 0.003967219 -0.0020987997 0.0036165297 0.008547476

model_4/dense_12/BiasAdd/ReadVariableOp/resource f4 [128]
00000000: 2497 99bd 969c 7ebc dbf4 b7bc 3d61 c9bc
00000010: 8943 113d 2e26 28bc 3bd8 8c3b 6527 883c
00000020: bfb8 883c be5e bb3d cc54 d0bc 5ebd 59bd
00000030: 8812 daba 884b 573c 756b c13c 45b3 633c
00000040: 773b 873c ebc7 a63d b4c8 233d c30e 703b
00000050: f19a a83b 59c0 aa3d 2775 b73c f945 e8bb
00000060: 3158 d93b 4ca6 253c ef53 233d 8b42 f7bc
00000070: abeb 013c 5868 10bd dd96 47bb 6ce9 d2bc
00000080: 9206 813c 8f78 aabc c153 823b 06fe b03d
00000090: 76c1 17bd 93e3 22bd 26d6 0bbd 059c 2a3c
000000a0: df43 c93b 78b5 853d f2c9 02bd 136b e43d
000000b0: 6332 eb3c 0a26 ef3c c9b8 ce3d 27c1 833c
000000c0: 3f48 f83c 9b45 16bd f131 b13b bd4e 84bc
000000d0: 38cc dcbc d84a 813c faae 69bd f7cf 1e3d
000000e0: e36e b9bd 560c 343d 2558 c1b9 45ca 52bb
000000f0: e2dd 71bb 1ad6 7abd d16f 4d3d 372f 233d
00000100: 5198 4d3d 3e13 fe3c d765 2d3d 576d 61bd
00000110: 1c81 bbbc 6dfb 82bc 45c9 893b c783 ff3c
00000120: d75a 40bd 1181 d9bc c86f f13c e7f5 f5bb
00000130: c069 febd 81f6 2f3d aaf3 f2bd 593a a2bc
00000140: 6c3d 6bbd 46f1 27bd 203d 503c 6c9e be3a
00000150: 1e88 a83c 5684 b33a 7347 8e3c 4d9d 55bc
00000160: e0cc 983c f6ba bc3c 4292 04be a81e cc3c
00000170: 0625 36bd a39e 2f3c 4fc2 8a3d ead8 9dbd
00000180: 05c9 423d f604 a1bc d524 34bc 8716 313c
00000190: 970b 4dbd c45a 0d3c 5dc7 09ba 2f48 8dbb
000001a0: 1983 923b 2871 19bd 8190 863d e763 1fb9
000001b0: 5fde 123d 6fd5 0dbd a197 c0bb 8f8e e3bb
000001c0: c202 ea3c 40e2 9fbc 2fb8 8d3c 3a3d b83c
000001d0: 76f3 3dbd ee84 4e3d 5754 b83d 5a5f 883b
000001e0: f678 1f3c 9e0a 303d 6fb0 b9bd 02cf 163d
000001f0: bf6f 98bc ad26 59bd 3630 263b b791 c1bd
-0.07499531 -0.015540263 -0.022455623 -0.0245825 0.035464797 -0.010263009 0.0042982376 0.016620347
0.016689656 0.0914893 -0.02543106 -0.05315911 -0.0016637603 0.013140567 0.02361081 0.013897722
0.016507847 0.081436 0.039986327 0.0036629892 0.0051454236 0.08337469 0.02239473 -0.0070884195
0.0066328277 0.010110449 0.039874967 -0.030183097 0.007929723 -0.03525576 -0.0030454912 -0.02574607
0.015750203 -0.02080944 0.0039772694 0.08642201 -0.037049733 -0.039767813 -0.034139775 0.0104131745
0.006142124 0.06528753 -0.03193087 0.11153235 0.02871055 0.029192943 0.10093839 0.016083313
0.030307887 -0.036687475 0.005407565 -0.016150827 -0.026952848 0.015782759 -0.057051636 0.03877255
-0.09054353 0.043957077 -0.000368775 -0.003216402 -0.0036905934 -0.06123934 0.050155465 0.03983995
0.05019409 0.031015035 0.04233345 -0.055035915 -0.022888713 -0.01598903 0.0042049014 0.031190766
-0.04696163 -0.026550801 0.029472247 -0.0075061205 -0.12422514 0.042959694 -0.118628815 -0.019803213
-0.057431623 -0.04100158 0.012709886 0.0014543063 0.020572718 0.0013696055 0.017368054 -0.013037992
0.01865238 0.023038369 -0.12946418 0.024916962 -0.044468902 0.010718974 0.06775343 -0.07707389
0.04755499 -0.019655686 -0.01099511 0.010808594 -0.05005988 0.008627597 -0.00052558427 -0.0043115835
0.0044711945 -0.03746143 0.06570531 -0.00015200638 0.0358566 -0.034627374 -0.0058774506 -0.0069444845
0.028565768 -0.019517064 0.01729974 0.022490133 -0.04637476 0.05041974 0.090004615 0.0041617574
0.009733429 0.042978875 -0.09066855 0.03681851 -0.018607972 -0.0530154 0.0025358326 -0.09451621

model_4/batch_normalization_11/batchnorm/sub f4 [128]
00000000: b45b 613f d9fe e03e 8947 213f 55a9 7a3e
00000010: 481f fcbc 3a89 953e f2cb fabc 36db 1cbe
00000020: 7827 073f 585c 653f f312 bebd 834a dc3d
00000030: 725f 87be e38a b9bd e557 c93e e9f5 e33e
00000040: ccc3 2e3f 929d 853e ad1e a73e 0309 22bf
00000050: 8661 c73e ac8e 423e b7be 89be e6ae 273f
00000060: 2e77 95be b1f6 473e 42ab 3e3e 2e82 653e
00000070: 35d9 a83e b2ef ef3e 04fc 513f 24b9 ee3d
00000080: 3766 fcbe 7417 ff3e 0c01 6cbd 164f d33e
00000090: 10da d53d fd31 1d3f 768f 3cbe 8422 8d3e
000000a0: 8a77 bb3d 67f3 8a3e 990d 6b3e d8ce dcbe
000000b0: 5edc 203e ac3a ff3d 22df bcbd c300 b83e
000000c0: c6a3 e83d f170 a83e c2f1 0a3f 8e89 21be
000000d0: fc9e bd3d 3643 14bf c24a 1d3f ac57 753e
000000e0: 649c 843e 1880 af3d d17e 1e3f 78fb 1d3e
000000f0: 33b5 2c3e 90bb 2e3d dcbc 06bf 3319 1d3f
00000100: 5aa5 8e3e 9b43 a13e 3851 673e cce0 d23e
00000110: 0ee0 8e3e a169 5e3e 7f4f 103f 8bd9 68be
00000120: e442 64bf 7cb1 e43e 6872 33be ce33 b4bd
00000130: 76d6 253f 8610 673e 6973 3a3f b454 eb3e
00000140: cdb0 573e 4e9d be3e 03c5 873e 3054 0c3f
00000150: b0b5 5fbd eae0 b03e 4c6a 16bd 80b4 883d
00000160: eb4b 02bf b2a4 363f 0851 313e 5520 f53e
00000170: 72d6 1e3f fef3 50bf 9870 35bf 002b 533e
00000180: f52a 263f 7fda 1bbe 6f9a 1a3e fa5a bcbe
00000190: 0077 033e 630f 323e d151 793e bc0b 9f3e
000001a0: e8b1 fdbd 5d75 f33e af13 143f 3ad9 af3e
000001b0: a7ea 84be 40e0 993e 1896 983e bac9 01bf
000001c0: 408d 8d3e 4430 7d3e 60e3 f53e d087 7e3d
000001d0: fc11 be3e 7867 bfbc dbba 4b3f 9e0b 4ebf
000001e0: cf87 383f 4874 0a3f 4828 153e fe16 ef3e
000001f0: 5714 ebbe 5066 1ebe 683b 273d d96d 8a3e
0.8803055 0.43944433 0.6299978 0.24478658 -0.030776635 0.29206258 -0.030614827 -0.15317997
0.527946 0.8959403 -0.09280958 0.107563995 -0.26440006 -0.09059694 0.3932487 0.44523552
0.6826751 0.2609678 0.3264059 -0.63295 0.38941592 0.18999738 -0.26903316 0.6550125
-0.2919249 0.19527699 0.18620017 0.22412941 0.32978216 0.4686256 0.8202517 0.116564065
-0.49296734 0.4982258 -0.057618186 0.41271275 0.10441983 0.614044 -0.18414101 0.27565396
0.0915366 0.27138826 0.22954406 -0.4312656 0.15709063 0.12462363 -0.09222247 0.3593808
0.11359362 0.32898667 0.54275143 -0.15775129 0.092588395 -0.57915056 0.61442196 0.23959225
0.25900567 0.08569354 0.61912256 0.15427959 0.16865997 0.042659342 -0.52631927 0.61366576
0.27860528 0.3149689 0.22589576 0.4118713 0.27905315 0.21719982 0.563713 -0.22739236
-0.89164567 0.4466666 -0.17524111 -0.087989435 0.64780366 0.22564897 0.7283235 0.4596306
0.21063538 0.3722939 0.26517496 0.5481596 -0.05461663 0.34546596 -0.036722466 0.06675053
-0.5089709 0.71345055 0.17316067 0.4787623 0.6204597 -0.816223 -0.7087493 0.20621872
0.649093 -0.15220068 0.15097974 -0.3678816 0.12838364 0.17388682 0.24347617 0.3106364
-0.123874485 0.4755048 0.57842535 0.34345418 -0.25960276 0.30053902 0.29802012 -0.50698435
0.27646828 0.24725443 0.48025036 0.06214124 0.37123096 -0.023364767 0.79581994 -0.80486476
0.7208223 0.5408368 0.14566147 0.4669723 -0.45913956 -0.15468717 0.04082814 0.27036932

model_4/batch_normalization_11/batchnorm/mul f4 [128]
00000000: 6d0e e73e c97e 9b3e 53ff 193f e6f2 f63e
00000010: 925e 113f 2b9d c93e 600e 2e3f dbad 903e
00000020: 860f 9d3e b0f2 cd3e 9836 b13e f076 203f
00000030: fd99 373e 4304 143f bd0a b53e 550b d53e
00000040: b33a 863e 9cbc fe3e b1c9 a13e 8774 6b3e
00000050: 2d0b 013f 85d3 053f a8ef c83e 8a85 af3e
00000060: 5344 1b3f d303 3e3f d205 6e3e fbf6 1f3f
00000070: 1dee 953e 8fe2 963e 73e0 b13e 4dc8 fd3e
00000080: 64e9 d33e 88b1 bc3e b280 3e3f 90ce cf3e
00000090: 7b30 ef3e 62ae 743e 84a8 cb3e c47a ea3e
000000a0: 57db 043f dbfd ed3e c784 a93e f4ff d83e
000000b0: 1ab6 e33e 30c4 f23e 00fa 063f 62e4 a73e
000000c0: 324d 903e 15bc 1b3f 70d8 ed3e c664 2d3f
000000d0: ba24 b23e 9200 2a3f 9708 843e 4317 f63e
000000e0: 643c bc3e f818 9f3e a8e4 043f a981 943e
000000f0: cb5e 2d3f 0605 e63e 1d49 f03e 192c 903e
00000100: dda0 1b3f aa3c 8c3e 71fb fe3e 88fe 013f
00000110: ae5f d03e 1945 9e3e bde2 b13e 77a3 103f
00000120: da27 233f 1983 fc3e 85fa 1b3f 8913 8e3e
00000130: d5c5 cd3e d86b c83e d4b6 973e d0f2 d43e
00000140: 5c10 203e 8dec bb3e ca6a 283f 4f03 0c3f
00000150: b6eb 043f 766f 0c3f 4314 c83e b77b fd3e
00000160: 0101 253f 4191 fb3e 2d16 953e f75d b53e
00000170: bf04 8b3e fb28 b33e aadf c73e 88ee 8e3e
00000180: dbf8 9a3e 0df5 d23e bee8 e53e 03be 2c3f
00000190: 2a3f d13e 14d2 d53e 16db 993e ba2f 203f
000001a0: 45a5 5e3e 9940 5d3e 743d a53e 81c2 bb3e
000001b0: 89fb 033f 8cc7 263f cca3 103f f7cd 183f
000001c0: d4f1 343f 8228 ec3e 8655 bc3e 3750 073f
000001d0: 23cb 9c3e 3402 f63e 1d36 013f 4b9b 053f
000001e0: 3c6c 993e 3b86 693e 8e59 b53e 54ef d33e
000001f0: 1cab 193f c176 ba3e f157 cb3e 5cc3 003f
0.45128193 0.30370167 0.6015522 0.48232192 0.5678493 0.39377722 0.67990685 0.2825764
0.30675906 0.40224218 0.34611964 0.62681484 0.17929836 0.57819 0.35359755 0.41610208
0.2621666 0.49753273 0.3159919 0.2299367 0.5040768 0.5227588 0.39245343 0.3428157
0.6065113 0.74224585 0.23244408 0.6248624 0.2928323 0.29469725 0.34741554 0.4956688
0.41389 0.36854196 0.74415123 0.40587282 0.46716675 0.23894647 0.39777005 0.45796788
0.51897186 0.4648274 0.33109114 0.42382777 0.4447487 0.47415304 0.5272522 0.3279143
0.28183895 0.60833865 0.4645419 0.67731893 0.34793645 0.6640712 0.25787804 0.48064622
0.36764824 0.31073737 0.519114 0.29005173 0.6772277 0.44925708 0.4693078 0.28158644
0.6079233 0.27390033 0.4980121 0.5077901 0.40697998 0.30912092 0.347433 0.5649943
0.63732684 0.4931877 0.6092914 0.2774928 0.40189996 0.39144778 0.29631674 0.415915
0.1563124 0.3670391 0.6578795 0.5469255 0.51922166 0.54857576 0.39077958 0.4950845
0.64454657 0.49134257 0.2911848 0.35423252 0.27152058 0.34992203 0.3903783 0.2791636
0.30267987 0.41202584 0.4490413 0.67477435 0.40868503 0.4176184 0.30049962 0.62572825
0.21742733 0.21606673 0.32273448 0.36671832 0.5155569 0.65148234 0.56499934 0.5968928
0.706815 0.46124655 0.36784 0.52856773 0.3062373 0.48048556 0.50473195 0.52190083
0.2996539 0.22805111 0.35419887 0.4139353 0.6002672 0.36418727 0.3971553 0.50298095
