client/assets/models/canned_gesture_classifier.tflite (tflite, 7773 bytes, 4 tensors)

model_1/new_classifier/BiasAdd/ReadVariableOp/resource f4 [8]
0	0x3e5d872d	0.21633597
1	0xbeeb29a1	-0.45930198
2	0xbe446993	-0.19180898
3	0x3ba2502b	0.0049534044
4	0x3e94e041	0.29077342
5	0x3e67f73f	0.2265291
6	0xbe1a1e13	-0.15050535
7	0xbe3ed71c	-0.18636745

model_1/batch_normalization_1/batchnorm/sub f4 [128]
0	0xbc549950	-0.012976006
1	0x3e7ffd47	0.24998961
2	0xbea9e642	-0.33183485
3	0x3e7e098a	0.24808326
4	0xbdf7d844	-0.12101796
5	0xbddab92a	-0.106798485
6	0xbc3b4bf0	-0.011431679
7	0xbf0d5d4e	-0.55220497
8	0xbf8b6f4e	-1.0893342
9	0x00000000	0.0
10	0xbd4aa520	-0.04947388
11	0xbc6d93e0	-0.014500588
12	0xbf12b9c3	-0.573147
13	0xbdf13d2c	-0.11779246
14	0x3da73624	0.081646234
15	0xbc1da11f	-0.009620934
16	0xbefb1237	-0.49037334
17	0x3c51f1e1	0.012814016
18	0xbf18b76e	-0.5965489
19	0xbe82b97c	-0.25532138
20	0x00000000	0.0
21	0xbfaea10c	-1.3642898
22	0xbe408a71	-0.18802811
23	0xbea1f7df	-0.31634423
24	0xbee565e8	-0.4480431
25	0xbe419f90	-0.18908525
26	0xbef6f3b2	-0.482328
27	0xbdf28b68	-0.11842996
28	0xbd5e3a00	-0.05425453
29	0xbd8bc78e	-0.068251714
30	0xbddea4c0	-0.10871267
31	0xbf6ab797	-0.91686386
32	0xbde7fe7c	-0.11327836
33	0xbff55278	-1.9165792
34	0xbd854344	-0.065069705
35	0xbd478468	-0.048710257
36	0xbbe13211	-0.0068724235
37	0xbf1624f3	-0.5865013
38	0xbe107c82	-0.14109996
39	0xbe1674f0	-0.14693046
40	0x3e791757	0.2432531
41	0xbf4f91f4	-0.8108208
42	0xbd375d5c	-0.04476677
43	0xbd85f4b4	-0.06540814
44	0xbeddc9ab	-0.43317923
45	0xbc639730	-0.013891026
46	0xbf50e4b8	-0.81599
47	0xbf3e53f3	-0.74346846
48	0xbde1f37f	-0.11032771
49	0xbe8d6d8e	-0.27622646
50	0xbd82ef02	-0.06393243
51	0xbdcf6080	-0.10125828
52	0xbd9ba3f9	-0.07599635
53	0xbd34b04e	-0.04411345
54	0xbe7921bc	-0.24329275
55	0xbeb6d25d	-0.3570737
56	0xbeccc5eb	-0.3999475
57	0xbea3fee2	-0.32030398
58	0xbe327266	-0.17426452
59	0xbfaedbbe	-1.366081
60	0xbdb6cf08	-0.08926207
61	0xbec9d176	-0.3941762
62	0xbe9474eb	-0.2899545
63	0xbeefca83	-0.46834192
64	0xbe217162	-0.15765908
65	0xbdc56798	-0.096388996
66	0xbee93f81	-0.45556262
67	0xbdf24890	-0.118302464
68	0xbf4f6896	-0.8101896
69	0x3e53f080	0.20697212
70	0xbe9ba623	-0.3040019
71	0xbed3699a	-0.41291505
72	0xbda0d088	-0.07852274
73	0xbc295856	-0.010336002
74	0xbe69d349	-0.22834505
75	0xbf0b47ea	-0.5440661
76	0xbf20fccc	-0.6288574
77	0xbf7b5f17	-0.9819197
78	0xbf45b474	-0.77228475
79	0xbde9e4dc	-0.114206046
80	0xbb706200	-0.0036679506
81	0xbe94a1b8	-0.29029632
82	0xbb27bab2	-0.0025593457
83	0xbdb13956	-0.08653514
84	0xbd741ae8	-0.059595972
85	0xbe79abcd	-0.24381943
86	0x3c784300	0.015152693
87	0xbed23916	-0.41059178
88	0x3eb508f1	0.35358384
89	0x3e2e3193	0.17011099
90	0xbe44b448	-0.19209397
91	0xbdaee4d8	-0.08539742
92	0xbf788fdf	-0.9709453
93	0xbe157200	-0.14594269
94	0xbeaec3ef	-0.3413386
95	0x3e54029f	0.20704125
96	0xbdb628c4	-0.08894494
97	0xbd9f53a0	-0.07779622
98	0xbcee3340	-0.029077172
99	0xbd65ea88	-0.05613187
100	0xbec28b5e	-0.37996954
101	0xbf279a7f	-0.6547012
102	0xbbac92a2	-0.0052665034
103	0xbcfc3c68	-0.030790523
104	0xbcf22bc8	-0.029561892
105	0xbed23e14	-0.41062987
106	0xbe98b455	-0.29825082
107	0x3d06e930	0.03293723
108	0xbf9426da	-1.1574357
109	0xbd96a69a	-0.073559955
110	0xbf58bb05	-0.8466037
111	0xbe95c6ca	-0.29253227
112	0xbebdaecb	-0.3704742
113	0x3dd0c6a6	0.10194139
114	0xbe55fbf0	-0.20896888
115	0xbed70936	-0.41999215
116	0xbe109922	-0.14120916
117	0xbf18b568	-0.59651804
118	0xbdf5cc7c	-0.12001893
119	0xbf0afb32	-0.54289544
120	0xbf941776	-1.156966
121	0xbf0ffddd	-0.5624674
122	0xbf98d681	-1.1940461
123	0xbe5b7208	-0.21430218
124	0xbd29299c	-0.041299447
125	0xbc5cf8a0	-0.013487011
126	0xbddb8548	-0.10718781
127	0xbba34a40	-0.0049832165

model_1/batch_normalization_1/batchnorm/mul f4 [128]
0	0x40c718ec	6.221792
1	0x420dc150	35.43878
2	0x40267662	2.6009755
3	0x421ab31d	38.674915
4	0x3fdbc704	1.717011
5	0x400bdff7	2.1855447
6	0x414c8346	12.782049
7	0x40a5cdce	5.1813726
8	0x4027b49e	2.620399
9	0x41fcfb72	31.622776
10	0x411b2d18	9.698509
11	0x4023604b	2.5527523
12	0x40bb9196	5.8615217
13	0x41620072	14.125109
14	0x4024114a	2.5635552
15	0x42396981	46.35303
16	0x40da08e5	6.8135858
17	0x422e3543	43.552013
18	0x3fe79578	1.8092489
19	0x4028d309	2.6378806
20	0x41fcfb72	31.622776
21	0x4099bf7c	4.8046246
22	0x4076d874	3.8569613
23	0x3ff8c437	1.943488
24	0x4033499c	2.8013678
25	0x40664887	3.5981767
26	0x4048239b	3.1271732
27	0x40028cf2	2.0398526
28	0x40827e76	4.077937
29	0x40d667c1	6.7001653
30	0x3fd3947c	1.6529689
31	0x412fabed	10.979474
32	0x4026f4c8	2.6086903
33	0x4041050c	3.015933
34	0x40696d55	3.647298
35	0x404cbbe0	3.198967
36	0x4221f53c	40.489487
37	0x3fa71c57	1.3055524
38	0x40241f3d	2.5644066
39	0x3fad6414	1.3546166
40	0x419f828b	19.938742
41	0x408ca9c5	4.395724
42	0x409a1ee0	4.816269
43	0x40bd2228	5.9104195
44	0x3fc63712	1.5485556
45	0x4170aa7f	15.041625
46	0x400e301a	2.221686
47	0x3ff56e78	1.9174337
48	0x407a9efb	3.9159534
49	0x40a76bdc	5.2319164
50	0x41bc0737	23.503523
51	0x405ed6fd	3.4818718
52	0x414bdcb6	12.7413845
53	0x41ff54e8	31.916458
54	0x409cd489	4.900944
55	0x405c48c7	3.441942
56	0x4087087f	4.219787
57	0x407bc8c8	3.9341297
58	0x3fdb3e0f	1.7128314
59	0x4042b076	3.0420203
60	0x40144630	2.316784
61	0x4041301d	3.0185616
62	0x404f4a3c	3.238906
63	0x400525b8	2.0804272
64	0x40afdc74	5.495661
65	0x40041b46	2.0641646
66	0x3fd59b94	1.6688104
67	0x401ea34e	2.4787173
68	0x408255cd	4.0729737
69	0x4224ef69	41.2338
70	0x400e2724	2.221139
71	0x40af45a1	5.4772496
72	0x401f1005	2.4853528
73	0x41f48ea7	30.569654
74	0x4159f600	13.622559
75	0x406a9b88	3.6657429
76	0x403953f1	2.8957484
77	0x401b6f75	2.4286778
78	0x403c4105	2.9414685
79	0x4008a48a	2.1350427
80	0x4080f298	4.0296135
81	0x4031f8fd	2.780822
82	0x42221923	40.524548
83	0x41286cb4	10.526539
84	0x40cc8f59	6.3924985
85	0x402f3e91	2.7381938
86	0x4035b00b	2.8388698
87	0x410ced11	8.807878
88	0x41d8db6d	27.107141
89	0x4170d8ad	15.052899
90	0x4034452b	2.8167217
91	0x40a44542	5.1334543
92	0x4035c68e	2.8402438
93	0x401aac99	2.4167845
94	0x4013a7bd	2.307113
95	0x418827dd	17.019464
96	0x41a85dd5	21.045816
97	0x400d1e66	2.2049804
98	0x3ff293c6	1.8951347
99	0x4095e74a	4.6844835
100	0x3fc6d59c	1.5533938
101	0x3fe3f83d	1.7810131
102	0x420add30	34.716003
103	0x408f32b4	4.4749393
104	0x40f51e60	7.659958
105	0x405688f9	3.3521101
106	0x412af15b	10.683925
107	0x3ff1f99a	1.8904297
108	0x3fcb85f5	1.5900255
109	0x40dab691	6.834786
110	0x3ffba08f	1.9658374
111	0x404ab734	3.1674318
112	0x4109afc8	8.605415
113	0x42191003	38.265636
114	0x40e40997	7.1261706
115	0x404dad75	3.213712
116	0x409e4c80	4.9468384
117	0x3fd658f5	1.6745898
118	0x400f9483	2.2434394
119	0x40490a62	3.1412587
120	0x4014ec86	2.3269362
121	0x4012123e	2.2823634
122	0x3fda2302	1.7041934
123	0x3fd0c351	1.6309606
124	0x40a528a1	5.1612096
125	0x4042704d	3.0381043
126	0x40226893	2.5376327
127	0x406e9b54	3.7282305

model_1/new_classifier/MatMul f4 [8, 128]
0	0xbd3b5c70	-0.045742452
1	0x3e0a5809	0.13510145
2	0x3e7e358f	0.24825118
3	0x3e5076d9	0.20357837
4	0xbd4d130a	-0.050066985
5	0x3d811023	0.06301906
6	0xbdfc97fb	-0.123336755
7	0x3e08c20c	0.13355273
8	0x3e01d87c	0.12680238
9	0x3db8c816	0.09022538
10	0x3d4790f2	0.048722215
11	0xbe53438d	-0.20631237
12	0x3dfefcd3	0.12450566
13	0x3ca33df0	0.019926995
14	0x3d924bb8	0.071433485
15	0xbf0246cc	-0.5088928
16	0x3c92e7ae	0.01793274
17	0x3e956771	0.29180482
18	0xbcc45012	-0.023963962
19	0xbafea1be	-0.0019426865
20	0x3d6b945c	0.057514533
21	0x3e508690	0.20363832
22	0xbd59df1e	-0.053191297
23	0x3e3ac142	0.18237785
24	0xbd95bae0	-0.07311034
25	0x3d91a707	0.07111936
26	0xbdffc5e4	-0.124889165
27	0xbd4c987f	-0.04995012
28	0xbd4b31a7	-0.0496079
29	0x3b9d056d	0.0047919066
30	0x3d68fa3d	0.05687927
31	0xbc9d135b	-0.019174268
32	0x3de83bcc	0.1133953
33	0x3e6eb771	0.23312165
34	0x3e18fc0e	0.14939901
35	0x3bd01998	0.0063507073
36	0x3e734d44	0.23759943
37	0x3e58099f	0.2109742
38	0x3b120065	0.0022278067
39	0x3c7188c1	0.014742077
40	0x3d8d7326	0.069067284
41	0xbdec72da	-0.11545344
42	0xbd907a63	-0.070545934
43	0xb8dfda2b	-0.000106741056
44	0x3dbd6531	0.09247816
45	0x3dacdc2a	0.084404305
46	0x3e5ca76e	0.21548244
47	0xbc5f7ee6	-0.013641095
48	0x3cf93c6c	0.03042432
49	0x3d4c0914	0.049813345
50	0x3d1aa1bc	0.0377519
51	0x3d2e023b	0.042482596
52	0xbd5642c6	-0.052309774
53	0xbd9f8574	-0.07789126
54	0x3c1224a0	0.008919865
55	0x3cea6405	0.028612146
56	0x3d9a0c8a	0.07521923
57	0x3e2c1424	0.16804558
58	0x3d85fdf0	0.06542575
59	0x3e9429a8	0.2893803
60	0x3df2aea5	0.11849717
61	0x3e431f6b	0.19054954
62	0x3d4e6c49	0.050396238
63	0x3cfe6a88	0.031056657
64	0xbe0298f6	-0.12753662
65	0x3e862475	0.2619969
66	0x3d33ee93	0.043928694
67	0x3d2cfed3	0.042235207
68	0x3d59da55	0.053186733
69	0x3e719910	0.23593545
70	0x3ccf542a	0.025308687
71	0xbd8006ca	-0.06251295
72	0xbd0094aa	-0.031391777
73	0xbba7f556	-0.005125682
74	0xbd6c5bb6	-0.05770465
75	0xbb9c7918	-0.0047751777
76	0x3d49cee0	0.049269557
77	0xbd23c476	-0.03998228
78	0xbd9abde3	-0.07555749
79	0x3cba7c17	0.022764249
80	0xbe3d79f2	-0.1850355
81	0xbd8356e2	-0.06413056
82	0x3e52ab0f	0.20573066
83	0x3e2e3937	0.17014013
84	0x3dd7e72c	0.105421394
85	0xbe21e10c	-0.15808505
86	0x3e04d295	0.12970956
87	0x3d7d536c	0.061847135
88	0xbdb3631f	-0.0875914
89	0xbc73524d	-0.014851165
90	0x3c4f9a00	0.012670994
91	0xbbf3d124	-0.007440703
92	0x3d91f07b	0.07125946
93	0x3ddadb94	0.106864125
94	0x3e4b20dd	0.19836755
95	0x3e448b51	0.1919377
96	0x3d8041a1	0.06262518
97	0x3ca9e89f	0.020740805
98	0x3dc9a3b9	0.09845681
99	0x3da7bd7d	0.08190439
100	0x3ca0f57d	0.019648308
101	0xbd86865e	-0.06568597
102	0x3e952232	0.2912765
103	0xbe4c2f6b	-0.19939964
104	0xbd015d3a	-0.03158305
105	0x3e2cf899	0.16891707
106	0xbcfcb082	-0.030845884
107	0xbd751cb3	-0.059841823
108	0xbc6c4030	-0.0144196
109	0x3d0003ce	0.03125363
110	0x3dcc3681	0.09971333
111	0x3d95062e	0.07276569
112	0x3d64c66e	0.0558533
113	0xbd34bfac	-0.044128105
114	0xbd04a601	-0.032384876
115	0x3d99e013	0.07513442
116	0x3df4486f	0.11927878
117	0xbc855063	-0.016273683
118	0x3e5c6e89	0.21526541
119	0x3b9f11be	0.00485441
120	0x3e8d7faa	0.27636462
121	0x3c8740ef	0.016510455
122	0x3cd3c505	0.025850782
123	0xbda0702c	-0.07833895
124	0xbdf4007f	-0.11914157
125	0x3da4719f	0.08029484
126	0x3ae0bac2	0.0017145502
127	0x3c2f15f2	0.0106863845
128	0xbcfd1f7d	-0.030898804
129	0xbf1c1148	-0.6096387
130	0xbe18ebca	-0.14933696
131	0xbf0cc0b2	-0.5498153
132	0x3ca2ac30	0.019857496
133	0x3dda7052	0.10665955
134	0xbec9c31e	-0.39406675
135	0x3f17dbce	0.5931977
136	0x3e12bfa7	0.14330922
137	0xbd6213c4	-0.05519463
138	0x3f1c90e5	0.6115859
139	0xbdafe354	-0.08588281
140	0x3d94699c	0.07246706
141	0xbf63ba06	-0.88955724
142	0x3dd1eddc	0.10250446
143	0xbdb7f71b	-0.089826785
144	0xbdce2b4d	-0.10066853
145	0xbe62f61d	-0.22164197
146	0xbef732c6	-0.48280925
147	0xbdc42683	-0.09577658
148	0xbe1ce5ae	-0.15321991
149	0xbf22b0eb	-0.63551205
150	0xbc8fb51c	-0.017542414
151	0xbe4c0ced	-0.19926806
152	0x3cf70236	0.030152421
153	0x3d634a53	0.055490803
154	0xbdbb3a68	-0.091419995
155	0x3d80ccea	0.06289084
156	0xbd7e9676	-0.06215521
157	0xbf02c638	-0.5108371
158	0xbe380e84	-0.17974287
159	0x3e4e4a80	0.20145607
160	0x3e4fbd5e	0.20287082
161	0x3e13b7a5	0.14425524
162	0xbf867046	-1.0503013
163	0x3c9f16f1	0.019420119
164	0x3e342432	0.17591932
165	0x3e1e07fa	0.1543273
166	0xbe9fb56c	-0.311931
167	0x3e2dc318	0.16968954
168	0xbf3bf962	-0.734274
169	0xbe1b4e03	-0.15166478
170	0xbed36714	-0.4128958
171	0x3e18e672	0.14931658
172	0xbf75d000	-0.9602051
173	0xbd64cd3a	-0.05585978
174	0x3da3f36e	0.08005415
175	0x3d03d676	0.032186948
176	0xbe03220f	-0.12805961
177	0xbe56c687	-0.2097417
178	0xbe30966e	-0.17244884
179	0xbe6bec6b	-0.23039405
180	0x3dc19cbf	0.09453725
181	0xbe9cc4ed	-0.30618992
182	0xbe9a5751	-0.30144742
183	0x3da37d4f	0.07982885
184	0x3e512e92	0.20427921
185	0xbd2f928c	-0.042864367
186	0x3e30fb7c	0.17283434
187	0xbe9dbeba	-0.30809575
188	0x3e474f51	0.1946385
189	0x3b98d685	0.0046642446
190	0x3e1e4a89	0.1545812
191	0x3e2bee69	0.16790165
192	0xc038e10b	-2.8887355
193	0x3e8ff3f1	0.281158
194	0xbfc31b54	-1.5242715
195	0x3dd95732	0.10612334
196	0x3d8a55ef	0.06754672
197	0xbf2f8a52	-0.68570435
198	0x3d49e879	0.04929397
199	0x3d7e6819	0.062110994
200	0xba72e401	-0.00092655426
201	0xbdab249d	-0.08356593
202	0xbe97d991	-0.29658177
203	0xbe7a57a5	-0.24447496
204	0x3e02e93f	0.12784289
205	0xbe54b329	-0.20771469
206	0xbe199112	-0.14996746
207	0xbf5fd300	-0.87431335
208	0xbe0f8915	-0.14017136
209	0xbe45a953	-0.19302873
210	0x3cc75d8a	0.024336595
211	0xbf3793e0	-0.71710014
212	0xbf3b8b4c	-0.73259425
213	0xbd78b9fa	-0.060724236
214	0xbe087c02	-0.13328555
215	0xbef5a9d3	-0.47981128
216	0xbf2cc8c9	-0.67493874
217	0xbeb8831e	-0.36037534
218	0x3c0d4e1e	0.008624582
219	0xbf3f9820	-0.748415
220	0xbe8a2334	-0.26979983
221	0xbce89b64	-0.028394409
222	0xbea2b819	-0.3178108
223	0xbf0ee6f1	-0.5582114
224	0x3d3596da	0.044333316
225	0x3c90a6a7	0.017657591
226	0xbeff6b4d	-0.49886551
227	0xbe5b9357	-0.21442924
228	0xbdfdbbf7	-0.12389367
229	0x3e31aab7	0.17350279
230	0xbcdf5dc3	-0.027266389
231	0xbe050c76	-0.12993035
232	0xbe9ceb20	-0.30648136
233	0x3e2b0a2e	0.16703102
234	0xbe668712	-0.22512463
235	0xbd822a73	-0.06355753
236	0xbf823ddf	-1.0175132
237	0x3e2ce336	0.16883549
238	0x3e036326	0.12830791
239	0x3e258e40	0.16167545
240	0xbfa2a1a7	-1.2705582
241	0xbe574451	-0.21022154
242	0xbf2a9e66	-0.66647947
243	0x3db12089	0.08648784
244	0xbf516643	-0.81796664
245	0xbe872695	-0.26396623
246	0xbbf42ce0	-0.0074516386
247	0xbe658579	-0.22414197
248	0xbfb8d3be	-1.4439619
249	0xbfb66181	-1.4248506
250	0x3e050bc0	0.12992764
251	0xbe892f38	-0.26793838
252	0xbf629d92	-0.88521683
253	0xbe08e6a3	-0.13369231
254	0x3d1c1180	0.038102627
255	0xbe10e54e	-0.14149973
